Documents/chatbot-main/data.pth (torch, 4991 bytes, 6 tensors)

l1.weight f4 [8, 54]
000000 61 c0 9c bd 0f d1 98 be 04 da d3 3e 5a c5 d3 3e
       -0.07653881 -0.29847 0.4137727 0.41361505
000010 74 e9 08 3f 8c fd 98 bd 9a 40 b6 3e e6 8f af 3e
       0.5348122 -0.07470235 0.35596162 0.34289473
000020 58 43 b6 3e 3c 98 b4 3e f6 29 e1 3e e9 5e 74 be
       0.35598254 0.35272396 0.43977326 -0.2386433
000030 f9 ec 31 3e a6 a1 9a be 8f 70 c5 bd de 91 41 be
       0.17375554 -0.30201453 -0.096406095 -0.189033
000040 34 cf fe 3e 3c 7c ce bd 2f e0 82 3e 69 0a 34 3f
       0.49767458 -0.100822896 0.25561664 0.70328385
000050 d1 d4 91 be 0a a9 22 3f cf d6 34 3f 5a 88 6d 3e
       -0.2848268 0.63539183 0.7064027 0.23196545
000060 34 68 7b bd 13 97 06 3f ce 21 a5 3e db cb 00 bf
       -0.061378673 0.5257427 0.32252353 -0.5031106
000070 f9 ab d3 3d 4a 93 ee be 1e 5e b0 3d b6 b7 a3 be
       0.103355356 -0.46596748 0.086117014 -0.31976098
000080 44 e2 ea 3c 4d d4 b2 3e cc c9 37 be 24 22 6d be
       0.028672345 0.34927598 -0.17948073 -0.23157555
000090 ff 0d cc 3d db a3 09 3e 9c 98 e7 3e 67 ed 98 3e
       0.09963607 0.13441412 0.4523362 0.29868624
0000a0 18 94 92 3d 20 81 bc 3e f9 54 76 be 77 b2 80 be
       0.07157153 0.36817265 -0.24055852 -0.25136158
0000b0 e6 91 49 bd d6 c1 41 be 97 ec 36 bf aa 77 b5 be
       -0.049211405 -0.18921599 -0.7145476 -0.3544286
0000c0 a5 26 e9 3e 21 f4 96 3e 1d 6e 15 be c5 b6 76 3e
       0.45537296 0.2948313 -0.14592786 0.24093159
0000d0 64 a4 9d 3e 23 9c c1 3e 85 00 b7 3e 76 92 42 3f
       0.30789483 0.37814435 0.35742584 0.7600473
0000e0 b4 79 02 bf a9 de ad 3e 58 0b ad 3e 59 b3 36 bf
       -0.50966954 0.3395894 0.33797717 -0.7136741
0000f0 09 58 9d bc 5d 03 b2 be 19 b6 e7 be dc 9a 87 be
       -0.019207017 -0.3476819 -0.45256117 -0.26485336
000100 14 2c c4 3e 58 59 9c bd 45 9d d4 3e 4f 27 df bd
       0.3831488 -0.076342285 0.41526237 -0.108961694
000110 10 32 17 3f 50 92 2b be ad 56 cc 3e d7 da 30 bf
       0.59060764 -0.16755033 0.39909878 -0.69083923
000120 d4 92 35 3e fe b7 0d 3f e4 a8 9d 3e 6d 93 cf 3e
       0.17731792 0.55358875 0.30792916 0.40542164
000130 41 d3 03 3f 6f c3 5c 3e e8 9b 19 be d7 5f e9 3e
       0.5149422 0.21558927 -0.1500088 0.45580932
000140 62 8f 30 3e 72 6f 6b 3f 17 60 fb 3d ad 61 16 3f
       0.17242196 0.9196693 0.12274187 0.5874279
000150 7f a8 15 bf d1 87 b8 bd 24 f8 4b 3e 3a e3 0b bf
       -0.5846023 -0.0901028 0.19918877 -0.54643595
000160 f8 98 53 3f 7d fc 79 bd 66 7a 06 3e ff cc ca be
       0.82655287 -0.061031807 0.13132629 -0.39609525
000170 cd 2a 52 bd 29 e7 b5 b9 a7 38 1b bf 93 df 85 3e
       -0.05131035 -0.00034695238 -0.6063332 0.26147136
000180 3e 08 e0 bd 19 c0 2d 3f 2f b8 c5 be 15 dc 71 3f
       -0.10939072 0.6787124 -0.38617083 0.94476444
000190 3d eb 3a 3f 18 17 de 3e ee bb b9 3e e5 65 20 3e
       0.73015195 0.43376994 0.3627619 0.1566387
0001a0 2d fa dd bd 88 6f 77 3e e9 67 16 3d 68 0d f0 3e
       -0.10838733 0.2416364 0.03672019 0.46885228
0001b0 6a ee ec 3d c2 1f a5 3e 66 df e0 3e 8b 65 63 bd
       0.115689114 0.32250792 0.4392044 -0.05551676
0001c0 cf bf 4d 3e ea e8 66 3f ce ce bd 3e 09 f9 d0 3e
       0.200927 0.9019915 0.37071842 0.40815
0001d0 35 b8 d5 3e 61 8f f1 3e 4f 0d 1d bb 0f 08 22 be
       0.417421 0.47179702 -0.0023964231 -0.15823387
0001e0 75 3c 80 3e 66 80 6f 3e 2c ae bc 3e 95 b3 3b be
       0.25046125 0.23388824 0.36851633 -0.18330224
0001f0 61 72 3a be 00 65 52 3f 85 a3 db be 35 55 9b be
       -0.18207695 0.82185364 -0.42898193 -0.30338445
000200 25 1d bf 3d be 7f da be b2 1d 95 be 5c 69 a0 be
       0.09331731 -0.42675585 -0.29124218 -0.31330383
000210 db 74 03 3e d7 f0 14 be a7 fc cc be fd 33 b7 3e
       0.12837546 -0.14544998 -0.40036508 0.3578185
000220 57 25 bb 3c 86 a5 c8 3e 89 cc 32 3f 0b 55 28 3e
       0.022844953 0.39188784 0.69843346 0.16438691
000230 ff d4 99 3d d9 40 ba 3e f1 51 d6 3e 15 69 d1 bd
       0.07511329 0.363776 0.4185939 -0.10225121
000240 2f bc 2d be 0d 7d 0a 3f 84 fb d8 3e 9e 5e db 3e
       -0.16966318 0.5409706 0.4237939 0.42845625
000250 b4 04 3c 3f a0 3b 2b bf 49 b2 24 3e ec 45 18 3e
       0.73444676 -0.66887856 0.16083635 0.14870423
000260 5f 8a fd 3e 8e a4 7c 3e 64 c4 a2 be 87 ac 7c bd
       0.4951963 0.24672148 -0.3179046 -0.061687972
000270 48 e1 ef 3c e0 e9 fc be ef fe ed bd 35 f7 ca be
       0.029282227 -0.49397182 -0.1162089 -0.3964173
000280 f8 61 a1 3e 9d cd ab 3e b7 38 00 3f 4f 4a 66 3e
       0.31520057 0.33555308 0.5008654 0.22489284
000290 a0 96 0c be 71 7d 64 be 08 bf df be 52 58 a8 be
       -0.13729334 -0.22313477 -0.43700433 -0.32879883
0002a0 f8 5f 67 be ff f5 c1 be c9 4f a8 bd 99 77 21 be
       -0.22595203 -0.37882993 -0.08218343 -0.15768279
0002b0 90 f8 83 be a7 88 d5 3e 9d 3e 99 be 4f 2b 07 3f
       -0.25775576 0.4170582 -0.29930583 0.5280046
0002c0 a1 25 11 3e bd bf b3 3e 18 d0 43 be 49 bf b1 be
       0.1417451 0.35107222 -0.1912235 -0.34716251
0002d0 d8 fb 37 bd 9a 11 f0 be 35 80 b0 3e 0a c1 f2 be
       -0.04491791 -0.4688843 0.34472814 -0.47412902
0002e0 4b 4c e6 be 13 07 f1 bd b9 e9 af 3d 5f 7d 97 bd
       -0.44980082 -0.117689274 0.08589501 -0.073969595
0002f0 fe 07 39 be 16 ff cf 3e 24 dc b1 3a 29 af 4c 3e
       -0.18069455 0.40624303 0.0013569635 0.19988693
000300 9c 59 19 be c2 d7 0a 3f 05 2c 0a 3e da 0e 4d be
       -0.1497559 0.5423547 0.13493355 -0.20025197
000310 25 36 ea 3e 58 7b 98 3e 01 aa e8 3c b8 af bb bd
       0.45744434 0.29781604 0.028401377 -0.09164375
000320 5f 24 dd bc 4f be e4 bd d7 9b 51 bd 65 f5 95 bd
       -0.026994882 -0.11169111 -0.05117401 -0.07322196
000330 b6 96 6d 3e 29 db 99 3e 12 ed 5c 3e 33 1f d7 3e
       0.23202023 0.30050018 0.2157481 0.4201599
000340 95 60 44 3f 5e c4 c2 3e e2 aa 91 bd 45 17 89 be
       0.7670987 0.3804044 -0.071126714 -0.26775566
000350 42 38 2c 3e b2 76 e6 bd 1e ba 4b be b2 e6 22 3e
       0.16818336 -0.11253108 -0.19895217 0.15908316
000360 a4 fc a0 be 5d 52 c4 3e 14 79 3f 3d 2a 5a 97 bc
       -0.3144275 0.38344088 0.04674633 -0.01847561
000370 0e 75 06 be f7 89 2b 3f 69 8c 01 3e f8 e6 96 be
       -0.1313059 0.6700739 0.12651218 -0.2947309
000380 19 1c 33 3e 4b 68 67 be 90 ea f4 3c 49 77 20 3f
       0.17491187 -0.22598378 0.029897004 0.62682015
000390 0a b5 34 3e 00 28 0f 3f 02 03 4e 3e 30 f8 d2 3e
       0.17647186 0.5592041 0.20118335 0.41204977
0003a0 cb 69 30 be ae e0 2e 3f 3f 29 94 be 09 71 a9 be
       -0.17227857 0.68311584 -0.28937718 -0.3309405
0003b0 0b 66 6c be 27 35 74 be b9 f5 b2 be 5e 9a ac 3e
       -0.23085801 -0.23848401 -0.34953097 0.33711523
0003c0 6f 27 84 3e b5 32 52 bd 10 63 c5 be 77 76 3e 3e
       0.25811335 -0.05131789 -0.3855214 0.18599878
0003d0 fe 73 3b bd 07 e1 18 3e d0 08 0a 3f 2d bc b2 3e
       -0.045764916 0.14929591 0.53919697 0.34909192
0003e0 35 bc 15 be ce 8f 1a 3d ac 7f b9 3e 74 f4 ee 3e
       -0.14622577 0.0377348 0.36230218 0.46670878
0003f0 00 31 42 bb 04 71 86 3e d7 df 12 3e 15 ed a9 3d
       -0.0029631257 0.262581 0.143432 0.08297173

l1.bias f4 [8]
000000 4a 42 37 3f 79 22 4e 3f 78 78 4f 3f d6 8b f4 3e
       0.71585524 0.8052135 0.81043196 0.47762936
000010 d2 e9 37 3f f8 df ad 3e b1 a1 df 3e ac 89 cc 3e
       0.71841156 0.33959937 0.43678048 0.39948785

l2.weight f4 [8, 8]
000000 57 da 19 bf cf 35 3d 3f 5a bb a9 3e 3b 10 9d be
       -0.60098785 0.7391023 0.3315075 -0.30676445
000010 96 98 31 3f fa 46 b9 be 4b a5 18 bf 5c 31 20 bf
       0.6937345 -0.36186963 -0.5962722 -0.62575316
000020 63 8d ab 3f 57 b4 0d 3f 02 01 40 be 74 2c 71 bf
       1.3402523 0.553533 -0.18750384 -0.94208455
000030 7b 59 20 bf ae 16 64 3f 4e 68 a1 3f e7 d3 c4 3e
       -0.62636536 0.89097106 1.2609956 0.3844292
000040 e5 85 6e bd 8d 15 b2 3f cd e2 07 be 24 69 1f 3f
       -0.05823316 1.3912827 -0.13270111 0.62269807
000050 80 b6 c6 be df c8 1d 3d 84 57 82 3e 4a 20 09 bf
       -0.3881111 0.038521644 0.25457394 -0.53564894
000060 f8 ec 85 bf 95 ba 20 3f a7 6b 17 3f f1 ba 4a 3f
       -1.0462942 0.627847 0.5914864 0.791915
000070 dd ed 7a 3f 08 cf 40 bf 39 0d 9e be 22 e3 42 3f
       0.980192 -0.75315905 -0.30869463 0.7612783
000080 c9 89 e1 be 61 88 2b 3f e1 39 95 3d 75 54 8a 3f
       -0.44050434 0.6700497 0.0728643 1.0807024
000090 36 af 33 be 26 c9 a9 3f ef 61 25 be b4 fa 98 3f
       -0.17547306 1.3264511 -0.1615064 1.1951509
0000a0 e1 d0 ca 3e f7 70 e4 3e c2 14 8a 3f 7e dd 4f bf
       0.39612487 0.44617435 1.0787585 -0.81197345
0000b0 f7 b6 42 3f e4 90 8f 3d e5 11 13 bf 91 74 27 bf
       0.7606043 0.070100576 -0.5744918 -0.6541224
0000c0 db dd 8b 3e 65 fe b2 be e0 25 5c 3f 7a 3f b9 3e
       0.273177 -0.34959713 0.8599529 0.3618124
0000d0 6d b1 31 3e b6 ce 3d 3f bf 01 8e bf 99 23 bb bd
       0.17352839 0.7414354 -1.1094283 -0.09137649
0000e0 fb c9 36 3f be 38 3b 3e 46 b4 0f 3f 5d 5d 2b 3d
       0.7140195 0.18283364 0.5613445 0.041837085
0000f0 ea c2 81 3f 0b fd a4 bf c1 33 1f 3f c3 da 76 be
       1.0137608 -1.2889723 0.62188345 -0.24106888

l2.bias f4 [8]
000000 ef 02 41 3d 12 7b ea 3e d7 5d 0e 3f 5f c1 8b 3e
       0.04712194 0.4579702 0.5561194 0.27295968
000010 16 86 37 3e 41 58 b9 3e d6 a1 06 3f f9 e3 54 3f
       0.17922243 0.36200145 0.5259069 0.8316036

l3.weight f4 [7, 8]
000000 b1 cd 97 bc 11 78 35 bf 72 5a 5e bf 92 48 3f 3f
       -0.018530698 -0.7088633 -0.8685676 0.7472011
000010 ba 03 66 3e e7 3f a9 bf 47 14 ea be 7c 6c 00 3f
       0.22462359 -1.3222626 -0.45718595 0.50165534
000020 3e 56 0b 3f d3 1c 41 bf 9f 6d e1 3e 5a dc 71 3e
       0.5442847 -0.7543461 0.44028947 0.23619214
000030 d1 31 5f bd d1 65 d1 3e 26 07 95 be 24 d3 6e be
       -0.054490868 0.40897992 -0.29107016 -0.23322731
000040 81 6a 4b 3e 32 d4 51 bf c2 dc 33 bf 34 4f 11 3e
       0.19864847 -0.8196441 -0.70258725 0.1419037
000050 93 13 8c bf 50 a4 2b 3f 05 54 f6 3e 7e 42 1e 3f
       -1.0943474 0.67047596 0.48110977 0.6182021
000060 92 c2 0f bf ed 39 ea 3e 43 42 1f 3f 16 6f a0 bf
       -0.56156266 0.4574732 0.6221048 -1.2533901
000070 5d b8 3d bf f6 bb 83 bd a1 54 13 bf b3 9b 60 3f
       -0.7410944 -0.06432335 -0.5755101 0.8773758
000080 d3 c8 42 3d 43 90 35 3f 01 a1 ec bc f3 ba 9e bf
       0.047554802 0.7092325 -0.028885366 -1.2400802
000090 53 47 fa 3e 62 05 ad bf c5 0e 35 bf b8 50 24 bf
       0.4888254 -1.3517268 -0.7072566 -0.6418567
0000a0 06 0f cc bd 7d 41 07 3e 8d f9 1b bf da 0e ac bf
       -0.09963803 0.13208576 -0.6092766 -1.3442032
0000b0 3c 92 08 3e 5f cf 31 3f d2 c2 35 3f d3 50 2b bf
       0.13337034 0.6945705 0.710004 -0.669202
0000c0 61 db 0a bf e6 58 fe be a5 a6 20 3f fb b3 9a 3c
       -0.54240996 -0.496772 0.6275428 0.01888465
0000d0 09 7f 46 3f 07 f2 9a bf 72 d6 17 3f f7 e6 90 bf
       0.7753759 -1.2105111 0.5931159 -1.1320485

l3.bias f4 [7]
000000 a2 61 3b be 8f 37 35 bf 68 d3 2b 3e 17 dd 90 3e
       -0.18298963 -0.707879 0.16779864 0.28293678
000010 c2 16 a4 be 76 6f 74 be 72 3d 7b 3d
       -0.32048613 -0.23870644 0.061337896
